…
===========================================================================
Layer (type:depth-idx)                                       Input Shape               Output Shape              Param #                   Param %                   Kernel Shape              Mult-Adds                 Trainable
===========================================================================================================================================================================================================================================
DQDETR                                                       [1, 3, 800, 800]          --                        --                        -11.91%                   --                        --                        Partial
├─Joiner: 1-1                                                [1, 3, 800, 800]          [1, 256, 200, 200]        --                             --                   --                        --                        Partial
│    └─Backbone: 2-1                                         [1, 3, 800, 800]          [1, 2048, 25, 25]         --                             --                   --                        --                        Partial
│    │    └─IntermediateLayerGetter: 3-1                     [1, 3, 800, 800]          [1, 2048, 25, 25]         --                             --                   --                        --                        Partial
│    │    │    └─Conv2d: 4-1                                 [1, 3, 800, 800]          [1, 64, 400, 400]         (9,408)                     0.01%                   [7, 7]                    1,505,280,000             False
│    │    │    └─FrozenBatchNorm2d: 4-2                      [1, 64, 400, 400]         [1, 64, 400, 400]         --                             --                   --                        --                        --
│    │    │    └─ReLU: 4-3                                   [1, 64, 400, 400]         [1, 64, 400, 400]         --                             --                   --                        --                        --
│    │    │    └─MaxPool2d: 4-4                              [1, 64, 400, 400]         [1, 64, 200, 200]         --                             --                   3                         --                        --
│    │    │    └─Sequential: 4-5                             [1, 64, 200, 200]         [1, 256, 200, 200]        --                             --                   --                        --                        False
│    │    │    │    └─Bottleneck: 5-1                        [1, 64, 200, 200]         [1, 256, 200, 200]        --                             --                   --                        --                        False
│    │    │    │    │    └─Conv2d: 6-1                       [1, 64, 200, 200]         [1, 64, 200, 200]         (4,096)                     0.01%                   [1, 1]                    163,840,000               False
│    │    │    │    │    └─FrozenBatchNorm2d: 6-2            [1, 64, 200, 200]         [1, 64, 200, 200]         --                             --                   --                        --                        --
│    │    │    │    │    └─ReLU: 6-3                         [1, 64, 200, 200]         [1, 64, 200, 200]         --                             --                   --                        --                        --
│    │    │    │    │    └─Conv2d: 6-4                       [1, 64, 200, 200]         [1, 64, 200, 200]         (36,864)                    0.06%                   [3, 3]                    1,474,560,000             False
│    │    │    │    │    └─FrozenBatchNorm2d: 6-5            [1, 64, 200, 200]         [1, 64, 200, 200]         --                             --                   --                        --                        --
│    │    │    │    │    └─ReLU: 6-6                         [1, 64, 200, 200]         [1, 64, 200, 200]         --                        (recursive)               --                        --                        --
│    │    │    │    │    └─Conv2d: 6-7                       [1, 64, 200, 200]         [1, 256, 200, 200]        (16,384)                    0.02%                   [1, 1]                    655,360,000               False
│    │    │    │    │    └─FrozenBatchNorm2d: 6-8            [1, 256, 200, 200]        [1, 256, 200, 200]        --                             --                   --                        --                        --
│    │    │    │    │    └─Sequential: 6-9                   [1, 64, 200, 200]         [1, 256, 200, 200]        --                             --                   --                        --                        False
│    │    │    │    │    │    └─Conv2d: 7-1                  [1, 64, 200, 200]         [1, 256, 200, 200]        (16,384)                    0.02%                   [1, 1]                    655,360,000               False
│    │    │    │    │    │    └─FrozenBatchNorm2d: 7-2       [1, 256, 200, 200]        [1, 256, 200, 200]        --                             --                   --                        --                        --
│    │    │    │    │    └─ReLU: 6-10                        [1, 256, 200, 200]        [1, 256, 200, 200]        --                        (recursive)               --                        --                        --
│    │    │    │    └─Bottleneck: 5-2                        [1, 256, 200, 200]        [1, 256, 200, 200]        --                             --                   --                        --                        False
│    │    │    │    │    └─Conv2d: 6-11                      [1, 256, 200, 200]        [1, 64, 200, 200]         (16,384)                    0.02%                   [1, 1]                    655,360,000               False
│    │    │    │    │    └─FrozenBatchNorm2d: 6-12           [1, 64, 200, 200]         [1, 64, 200, 200]         --                             --                   --                        --                        --
│    │    │    │    │    └─ReLU: 6-13                        [1, 64, 200, 200]         [1, 64, 200, 200]         --                             --                   --                        --                        --
│    │    │    │    │    └─Conv2d: 6-14                      [1, 64, 200, 200]         [1, 64, 200, 200]         (36,864)                    0.06%                   [3, 3]                    1,474,560,000             False
│    │    │    │    │    └─FrozenBatchNorm2d: 6-15           [1, 64, 200, 200]         [1, 64, 200, 200]         --                             --                   --                        --                        --
│    │    │    │    │    └─ReLU: 6-16                        [1, 64, 200, 200]         [1, 64, 200, 200]         --                        (recursive)               --                        --                        --
│    │    │    │    │    └─Conv2d: 6-17                      [1, 64, 200, 200]         [1, 256, 200, 200]        (16,384)                    0.02%                   [1, 1]                    655,360,000               False
│    │    │    │    │    └─FrozenBatchNorm2d: 6-18           [1, 256, 200, 200]        [1, 256, 200, 200]        --                             --                   --                        --                        --
│    │    │    │    │    └─ReLU: 6-19                        [1, 256, 200, 200]        [1, 256, 200, 200]        --                        (recursive)               --                        --                        --
│    │    │    │    └─Bottleneck: 5-3                        [1, 256, 200, 200]        [1, 256, 200, 200]        --                             --                   --                        --                        False
│    │    │    │    │    └─Conv2d: 6-20                      [1, 256, 200, 200]        [1, 64, 200, 200]         (16,384)                    0.02%                   [1, 1]                    655,360,000               False
│    │    │    │    │    └─FrozenBatchNorm2d: 6-21           [1, 64, 200, 200]         [1, 64, 200, 200]         --                             --                   --                        --                        --
│    │    │    │    │    └─ReLU: 6-22                        [1, 64, 200, 200]         [1, 64, 200, 200]         --                             --                   --                        --                        --
│    │    │    │    │    └─Conv2d: 6-23                      [1, 64, 200, 200]         [1, 64, 200, 200]         (36,864)                    0.06%                   [3, 3]                    1,474,560,000             False
│    │    │    │    │    └─FrozenBatchNorm2d: 6-24           [1, 64, 200, 200]         [1, 64, 200, 200]         --                             --                   --                        --                        --
│    │    │    │    │    └─ReLU: 6-25                        [1, 64, 200, 200]         [1, 64, 200, 200]         --                        (recursive)               --                        --                        --
│    │    │    │    │    └─Conv2d: 6-26                      [1, 64, 200, 200]         [1, 256, 200, 200]        (16,384)                    0.02%                   [1, 1]                    655,360,000               False
│    │    │    │    │    └─FrozenBatchNorm2d: 6-27           [1, 256, 200, 200]        [1, 256, 200, 200]        --                             --                   --                        --                        --
│    │    │    │    │    └─ReLU: 6-28                        [1, 256, 200, 200]        [1, 256, 200, 200]        --                        (recursive)               --                        --                        --
│    │    │    └─Sequential: 4-6                             [1, 256, 200, 200]        [1, 512, 100, 100]        --                             --                   --                        --                        True
│    │    │    │    └─Bottleneck: 5-4                        [1, 256, 200, 200]        [1, 512, 100, 100]        --                             --                   --                        --                        True
│    │    │    │    │    └─Conv2d: 6-29                      [1, 256, 200, 200]        [1, 128, 200, 200]        32,768                      0.05%                   [1, 1]                    1,310,720,000             True
│    │    │    │    │    └─FrozenBatchNorm2d: 6-30           [1, 128, 200, 200]        [1, 128, 200, 200]        --                             --                   --                        --                        --
│    │    │    │    │    └─ReLU: 6-31                        [1, 128, 200, 200]        [1, 128, 200, 200]        --                             --                   --                        --                        --
│    │    │    │    │    └─Conv2d: 6-32                      [1, 128, 200, 200]        [1, 128, 100, 100]        147,456                     0.22%                   [3, 3]                    1,474,560,000             True
│    │    │    │    │    └─FrozenBatchNorm2d: 6-33           [1, 128, 100, 100]        [1, 128, 100, 100]        --                             --                   --                        --                        --
│    │    │    │    │    └─ReLU: 6-34                        [1, 128, 100, 100]        [1, 128, 100, 100]        --                        (recursive)               --                        --                        --
│    │    │    │    │    └─Conv2d: 6-35                      [1, 128, 100, 100]        [1, 512, 100, 100]        65,536                      0.10%                   [1, 1]                    655,360,000               True
│    │    │    │    │    └─FrozenBatchNorm2d: 6-36           [1, 512, 100, 100]        [1, 512, 100, 100]        --                             --                   --                        --                        --
│    │    │    │    │    └─Sequential: 6-37                  [1, 256, 200, 200]        [1, 512, 100, 100]        --                             --                   --                        --                        True
│    │    │    │    │    │    └─Conv2d: 7-3                  [1, 256, 200, 200]        [1, 512, 100, 100]        131,072                     0.20%                   [1, 1]                    1,310,720,000             True
│    │    │    │    │    │    └─FrozenBatchNorm2d: 7-4       [1, 512, 100, 100]        [1, 512, 100, 100]        --                             --                   --                        --                        --
│    │    │    │    │    └─ReLU: 6-38                        [1, 512, 100, 100]        [1, 512, 100, 100]        --                        (recursive)               --                        --                        --
│    │    │    │    └─Bottleneck: 5-5                        [1, 512, 100, 100]        [1, 512, 100, 100]        --                             --                   --                        --                        True
│    │    │    │    │    └─Conv2d: 6-39                      [1, 512, 100, 100]        [1, 128, 100, 100]        65,536                      0.10%                   [1, 1]                    655,360,000               True
│    │    │    │    │    └─FrozenBatchNorm2d: 6-40           [1, 128, 100, 100]        [1, 128, 100, 100]        --                             --                   --                        --                        --
│    │    │    │    │    └─ReLU: 6-41                        [1, 128, 100, 100]        [1, 128, 100, 100]        --                             --                   --                        --                        --
│    │    │    │    │    └─Conv2d: 6-42                      [1, 128, 100, 100]        [1, 128, 100, 100]        147,456                     0.22%                   [3, 3]                    1,474,560,000             True
│    │    │    │    │    └─FrozenBatchNorm2d: 6-43           [1, 128, 100, 100]        [1, 128, 100, 100]        --                             --                   --                        --                        --
│    │    │    │    │    └─ReLU: 6-44                        [1, 128, 100, 100]        [1, 128, 100, 100]        --                        (recursive)               --                        --                        --
│    │    │    │    │    └─Conv2d: 6-45                      [1, 128, 100, 100]        [1, 512, 100, 100]        65,536                      0.10%                   [1, 1]                    655,360,000               True
│    │    │    │    │    └─FrozenBatchNorm2d: 6-46           [1, 512, 100, 100]        [1, 512, 100, 100]        --                             --                   --                        --                        --
│    │    │    │    │    └─ReLU: 6-47                        [1, 512, 100, 100]        [1, 512, 100, 100]        --                        (recursive)               --                        --                        --
│    │    │    │    └─Bottleneck: 5-6                        [1, 512, 100, 100]        [1, 512, 100, 100]        --                             --                   --                        --                        True
│    │    │    │    │    └─Conv2d: 6-48                      [1, 512, 100, 100]        [1, 128, 100, 100]        65,536                      0.10%                   [1, 1]                    655,360,000               True
│    │    │    │    │    └─FrozenBatchNorm2d: 6-49           [1, 128, 100, 100]        [1, 128, 100, 100]        --                             --                   --                        --                        --
│    │    │    │    │    └─ReLU: 6-50                        [1, 128, 100, 100]        [1, 128, 100, 100]        --                             --                   --                        --                        --
│    │    │    │    │    └─Conv2d: 6-51                      [1, 128, 100, 100]        [1, 128, 100, 100]        147,456                     0.22%                   [3, 3]                    1,474,560,000             True
│    │    │    │    │    └─FrozenBatchNorm2d: 6-52           [1, 128, 100, 100]        [1, 128, 100, 100]        --                             --                   --                        --                        --
│    │    │    │    │    └─ReLU: 6-53                        [1, 128, 100, 100]        [1, 128, 100, 100]        --                        (recursive)               --                        --                        --
│    │    │    │    │    └─Conv2d: 6-54                      [1, 128, 100, 100]        [1, 512, 100, 100]        65,536                      0.10%                   [1, 1]                    655,360,000               True
│    │    │    │    │    └─FrozenBatchNorm2d: 6-55           [1, 512, 100, 100]        [1, 512, 100, 100]        --                             --                   --                        --                        --
│    │    │    │    │    └─ReLU: 6-56                        [1, 512, 100, 100]        [1, 512, 100, 100]        --                        (recursive)               --                        --                        --
│    │    │    │    └─Bottleneck: 5-7                        [1, 512, 100, 100]        [1, 512, 100, 100]        --                             --                   --                        --                        True
│    │    │    │    │    └─Conv2d: 6-57                      [1, 512, 100, 100]        [1, 128, 100, 100]        65,536                      0.10%                   [1, 1]                    655,360,000               True
│    │    │    │    │    └─FrozenBatchNorm2d: 6-58           [1, 128, 100, 100]        [1, 128, 100, 100]        --                             --                   --                        --                        --
│    │    │    │    │    └─ReLU: 6-59                        [1, 128, 100, 100]        [1, 128, 100, 100]        --                             --                   --                        --                        --
│    │    │    │    │    └─Conv2d: 6-60                      [1, 128, 100, 100]        [1, 128, 100, 100]        147,456                     0.22%                   [3, 3]                    1,474,560,000             True
│    │    │    │    │    └─FrozenBatchNorm2d: 6-61           [1, 128, 100, 100]        [1, 128, 100, 100]        --                             --                   --                        --                        --
│    │    │    │    │    └─ReLU: 6-62                        [1, 128, 100, 100]        [1, 128, 100, 100]        --                        (recursive)               --                        --                        --
│    │    │    │    │    └─Conv2d: 6-63                      [1, 128, 100, 100]        [1, 512, 100, 100]        65,536                      0.10%                   [1, 1]                    655,360,000               True
│    │    │    │    │    └─FrozenBatchNorm2d: 6-64           [1, 512, 100, 100]        [1, 512, 100, 100]        --                             --                   --                        --                        --
│    │    │    │    │    └─ReLU: 6-65                        [1, 512, 100, 100]        [1, 512, 100, 100]        --                        (recursive)               --                        --                        --
│    │    │    └─Sequential: 4-7                             [1, 512, 100, 100]        [1, 1024, 50, 50]         --                             --                   --                        --                        True
│    │    │    │    └─Bottleneck: 5-8                        [1, 512, 100, 100]        [1, 1024, 50, 50]         --                             --                   --                        --                        True
│    │    │    │    │    └─Conv2d: 6-66                      [1, 512, 100, 100]        [1, 256, 100, 100]        131,072                     0.20%                   [1, 1]                    1,310,720,000             True
│    │    │    │    │    └─FrozenBatchNorm2d: 6-67           [1, 256, 100, 100]        [1, 256, 100, 100]        --                             --                   --                        --                        --
│    │    │    │    │    └─ReLU: 6-68                        [1, 256, 100, 100]        [1, 256, 100, 100]        --                             --                   --                        --                        --
│    │    │    │    │    └─Conv2d: 6-69                      [1, 256, 100, 100]        [1, 256, 50, 50]          589,824                     0.88%                   [3, 3]                    1,474,560,000             True
│    │    │    │    │    └─FrozenBatchNorm2d: 6-70           [1, 256, 50, 50]          [1, 256, 50, 50]          --                             --                   --                        --                        --
│    │    │    │    │    └─ReLU: 6-71                        [1, 256, 50, 50]          [1, 256, 50, 50]          --                        (recursive)               --                        --                        --
│    │    │    │    │    └─Conv2d: 6-72                      [1, 256, 50, 50]          [1, 1024, 50, 50]         262,144                     0.39%                   [1, 1]                    655,360,000               True
│    │    │    │    │    └─FrozenBatchNorm2d: 6-73           [1, 1024, 50, 50]         [1, 1024, 50, 50]         --                             --                   --                        --                        --
│    │    │    │    │    └─Sequential: 6-74                  [1, 512, 100, 100]        [1, 1024, 50, 50]         --                             --                   --                        --                        True
│    │    │    │    │    │    └─Conv2d: 7-5                  [1, 512, 100, 100]        [1, 1024, 50, 50]         524,288                     0.78%                   [1, 1]                    1,310,720,000             True
│    │    │    │    │    │    └─FrozenBatchNorm2d: 7-6       [1, 1024, 50, 50]         [1, 1024, 50, 50]         --                             --                   --                        --                        --
│    │    │    │    │    └─ReLU: 6-75                        [1, 1024, 50, 50]         [1, 1024, 50, 50]         --                        (recursive)               --                        --                        --
│    │    │    │    └─Bottleneck: 5-9                        [1, 1024, 50, 50]         [1, 1024, 50, 50]         --                             --                   --                        --                        True
│    │    │    │    │    └─Conv2d: 6-76                      [1, 1024, 50, 50]         [1, 256, 50, 50]          262,144                     0.39%                   [1, 1]                    655,360,000               True
│    │    │    │    │    └─FrozenBatchNorm2d: 6-77           [1, 256, 50, 50]          [1, 256, 50, 50]          --                             --                   --                        --                        --
│    │    │    │    │    └─ReLU: 6-78                        [1, 256, 50, 50]          [1, 256, 50, 50]          --                             --                   --                        --                        --
│    │    │    │    │    └─Conv2d: 6-79                      [1, 256, 50, 50]          [1, 256, 50, 50]          589,824                     0.88%                   [3, 3]                    1,474,560,000             True
│    │    │    │    │    └─FrozenBatchNorm2d: 6-80           [1, 256, 50, 50]          [1, 256, 50, 50]          --                             --                   --                        --                        --
│    │    │    │    │    └─ReLU: 6-81                        [1, 256, 50, 50]          [1, 256, 50, 50]          --                        (recursive)               --                        --                        --
│    │    │    │    │    └─Conv2d: 6-82                      [1, 256, 50, 50]          [1, 1024, 50, 50]         262,144                     0.39%                   [1, 1]                    655,360,000               True
│    │    │    │    │    └─FrozenBatchNorm2d: 6-83           [1, 1024, 50, 50]         [1, 1024, 50, 50]         --                             --                   --                        --                        --
│    │    │    │    │    └─ReLU: 6-84                        [1, 1024, 50, 50]         [1, 1024, 50, 50]         --                        (recursive)               --                        --                        --
│    │    │    │    └─Bottleneck: 5-10                       [1, 1024, 50, 50]         [1, 1024, 50, 50]         --                             --                   --                        --                        True
│    │    │    │    │    └─Conv2d: 6-85                      [1, 1024, 50, 50]         [1, 256, 50, 50]          262,144                     0.39%                   [1, 1]                    655,360,000               True
│    │    │    │    │    └─FrozenBatchNorm2d: 6-86           [1, 256, 50, 50]          [1, 256, 50, 50]          --                             --                   --                        --                        --
│    │    │    │    │    └─ReLU: 6-87                        [1, 256, 50, 50]          [1, 256, 50, 50]          --                             --                   --                        --                        --
│    │    │    │    │    └─Conv2d: 6-88                      [1, 256, 50, 50]          [1, 256, 50, 50]          589,824                     0.88%                   [3, 3]                    1,474,560,000             True
│    │    │    │    │    └─FrozenBatchNorm2d: 6-89           [1, 256, 50, 50]          [1, 256, 50, 50]          --                             --                   --                        --                        --
│    │    │    │    │    └─ReLU: 6-90                        [1, 256, 50, 50]          [1, 256, 50, 50]          --                        (recursive)               --                        --                        --
│    │    │    │    │    └─Conv2d: 6-91                      [1, 256, 50, 50]          [1, 1024, 50, 50]         262,144                     0.39%                   [1, 1]                    655,360,000               True
│    │    │    │    │    └─FrozenBatchNorm2d: 6-92           [1, 1024, 50, 50]         [1, 1024, 50, 50]         --                             --                   --                        --                        --
│    │    │    │    │    └─ReLU: 6-93                        [1, 1024, 50, 50]         [1, 1024, 50, 50]         --                        (recursive)               --                        --                        --
│    │    │    │    └─Bottleneck: 5-11                       [1, 1024, 50, 50]         [1, 1024, 50, 50]         --                             --                   --                        --                        True
│    │    │    │    │    └─Conv2d: 6-94                      [1, 1024, 50, 50]         [1, 256, 50, 50]          262,144                     0.39%                   [1, 1]                    655,360,000               True
│    │    │    │    │    └─FrozenBatchNorm2d: 6-95           [1, 256, 50, 50]          [1, 256, 50, 50]          --                             --                   --                        --                        --
│    │    │    │    │    └─ReLU: 6-96                        [1, 256, 50, 50]          [1, 256, 50, 50]          --                             --                   --                        --                        --
│    │    │    │    │    └─Conv2d: 6-97                      [1, 256, 50, 50]          [1, 256, 50, 50]          589,824                     0.88%                   [3, 3]                    1,474,560,000             True
│    │    │    │    │    └─FrozenBatchNorm2d: 6-98           [1, 256, 50, 50]          [1, 256, 50, 50]          --                             --                   --                        --                        --
│    │    │    │    │    └─ReLU: 6-99                        [1, 256, 50, 50]          [1, 256, 50, 50]          --                        (recursive)               --                        --                        --
│    │    │    │    │    └─Conv2d: 6-100                     [1, 256, 50, 50]          [1, 1024, 50, 50]         262,144                     0.39%                   [1, 1]                    655,360,000               True
│    │    │    │    │    └─FrozenBatchNorm2d: 6-101          [1, 1024, 50, 50]         [1, 1024, 50, 50]         --                             --                   --                        --                        --
│    │    │    │    │    └─ReLU: 6-102                       [1, 1024, 50, 50]         [1, 1024, 50, 50]         --                        (recursive)               --                        --                        --
│    │    │    │    └─Bottleneck: 5-12                       [1, 1024, 50, 50]         [1, 1024, 50, 50]         --                             --                   --                        --                        True
│    │    │    │    │    └─Conv2d: 6-103                     [1, 1024, 50, 50]         [1, 256, 50, 50]          262,144                     0.39%                   [1, 1]                    655,360,000               True
│    │    │    │    │    └─FrozenBatchNorm2d: 6-104          [1, 256, 50, 50]          [1, 256, 50, 50]          --                             --                   --                        --                        --
│    │    │    │    │    └─ReLU: 6-105                       [1, 256, 50, 50]          [1, 256, 50, 50]          --                             --                   --                        --                        --
│    │    │    │    │    └─Conv2d: 6-106                     [1, 256, 50, 50]          [1, 256, 50, 50]          589,824                     0.88%                   [3, 3]                    1,474,560,000             True
│    │    │    │    │    └─FrozenBatchNorm2d: 6-107          [1, 256, 50, 50]          [1, 256, 50, 50]          --                             --                   --                        --                        --
│    │    │    │    │    └─ReLU: 6-108                       [1, 256, 50, 50]          [1, 256, 50, 50]          --                        (recursive)               --                        --                        --
│    │    │    │    │    └─Conv2d: 6-109                     [1, 256, 50, 50]          [1, 1024, 50, 50]         262,144                     0.39%                   [1, 1]                    655,360,000               True
│    │    │    │    │    └─FrozenBatchNorm2d: 6-110          [1, 1024, 50, 50]         [1, 1024, 50, 50]         --                             --                   --                        --                        --
│    │    │    │    │    └─ReLU: 6-111                       [1, 1024, 50, 50]         [1, 1024, 50, 50]         --                        (recursive)               --                        --                        --
│    │    │    │    └─Bottleneck: 5-13                       [1, 1024, 50, 50]         [1, 1024, 50, 50]         --                             --                   --                        --                        True
│    │    │    │    │    └─Conv2d: 6-112                     [1, 1024, 50, 50]         [1, 256, 50, 50]          262,144                     0.39%                   [1, 1]                    655,360,000               True
│    │    │    │    │    └─FrozenBatchNorm2d: 6-113          [1, 256, 50, 50]          [1, 256, 50, 50]          --                             --                   --                        --                        --
│    │    │    │    │    └─ReLU: 6-114                       [1, 256, 50, 50]          [1, 256, 50, 50]          --                             --                   --                        --                        --
│    │    │    │    │    └─Conv2d: 6-115                     [1, 256, 50, 50]          [1, 256, 50, 50]          589,824                     0.88%                   [3, 3]                    1,474,560,000             True
│    │    │    │    │    └─FrozenBatchNorm2d: 6-116          [1, 256, 50, 50]          [1, 256, 50, 50]          --                             --                   --                        --                        --
│    │    │    │    │    └─ReLU: 6-117                       [1, 256, 50, 50]          [1, 256, 50, 50]          --                        (recursive)               --                        --                        --
│    │    │    │    │    └─Conv2d: 6-118                     [1, 256, 50, 50]          [1, 1024, 50, 50]         262,144                     0.39%                   [1, 1]                    655,360,000               True
│    │    │    │    │    └─FrozenBatchNorm2d: 6-119          [1, 1024, 50, 50]         [1, 1024, 50, 50]         --                             --                   --                        --                        --
│    │    │    │    │    └─ReLU: 6-120                       [1, 1024, 50, 50]         [1, 1024, 50, 50]         --                        (recursive)               --                        --                        --
│    │    │    └─Sequential: 4-8                             [1, 1024, 50, 50]         [1, 2048, 25, 25]         --                             --                   --                        --                        True
│    │    │    │    └─Bottleneck: 5-14                       [1, 1024, 50, 50]         [1, 2048, 25, 25]         --                             --                   --                        --                        True
│    │    │    │    │    └─Conv2d: 6-121                     [1, 1024, 50, 50]         [1, 512, 50, 50]          524,288                     0.78%                   [1, 1]                    1,310,720,000             True
│    │    │    │    │    └─FrozenBatchNorm2d: 6-122          [1, 512, 50, 50]          [1, 512, 50, 50]          --                             --                   --                        --                        --
│    │    │    │    │    └─ReLU: 6-123                       [1, 512, 50, 50]          [1, 512, 50, 50]          --                             --                   --                        --                        --
│    │    │    │    │    └─Conv2d: 6-124                     [1, 512, 50, 50]          [1, 512, 25, 25]          2,359,296                   3.53%                   [3, 3]                    1,474,560,000             True
│    │    │    │    │    └─FrozenBatchNorm2d: 6-125          [1, 512, 25, 25]          [1, 512, 25, 25]          --                             --                   --                        --                        --
│    │    │    │    │    └─ReLU: 6-126                       [1, 512, 25, 25]          [1, 512, 25, 25]          --                        (recursive)               --                        --                        --
│    │    │    │    │    └─Conv2d: 6-127                     [1, 512, 25, 25]          [1, 2048, 25, 25]         1,048,576                   1.57%                   [1, 1]                    655,360,000               True
│    │    │    │    │    └─FrozenBatchNorm2d: 6-128          [1, 2048, 25, 25]         [1, 2048, 25, 25]         --                             --                   --                        --                        --
│    │    │    │    │    └─Sequential: 6-129                 [1, 1024, 50, 50]         [1, 2048, 25, 25]         --                             --                   --                        --                        True
│    │    │    │    │    │    └─Conv2d: 7-7                  [1, 1024, 50, 50]         [1, 2048, 25, 25]         2,097,152                   3.14%                   [1, 1]                    1,310,720,000             True
│    │    │    │    │    │    └─FrozenBatchNorm2d: 7-8       [1, 2048, 25, 25]         [1, 2048, 25, 25]         --                             --                   --                        --                        --
│    │    │    │    │    └─ReLU: 6-130                       [1, 2048, 25, 25]         [1, 2048, 25, 25]         --                        (recursive)               --                        --                        --
│    │    │    │    └─Bottleneck: 5-15                       [1, 2048, 25, 25]         [1, 2048, 25, 25]         --                             --                   --                        --                        True
│    │    │    │    │    └─Conv2d: 6-131                     [1, 2048, 25, 25]         [1, 512, 25, 25]          1,048,576                   1.57%                   [1, 1]                    655,360,000               True
│    │    │    │    │    └─FrozenBatchNorm2d: 6-132          [1, 512, 25, 25]          [1, 512, 25, 25]          --                             --                   --                        --                        --
│    │    │    │    │    └─ReLU: 6-133                       [1, 512, 25, 25]          [1, 512, 25, 25]          --                             --                   --                        --                        --
│    │    │    │    │    └─Conv2d: 6-134                     [1, 512, 25, 25]          [1, 512, 25, 25]          2,359,296                   3.53%                   [3, 3]                    1,474,560,000             True
│    │    │    │    │    └─FrozenBatchNorm2d: 6-135          [1, 512, 25, 25]          [1, 512, 25, 25]          --                             --                   --                        --                        --
│    │    │    │    │    └─ReLU: 6-136                       [1, 512, 25, 25]          [1, 512, 25, 25]          --                        (recursive)               --                        --                        --
│    │    │    │    │    └─Conv2d: 6-137                     [1, 512, 25, 25]          [1, 2048, 25, 25]         1,048,576                   1.57%                   [1, 1]                    655,360,000               True
│    │    │    │    │    └─FrozenBatchNorm2d: 6-138          [1, 2048, 25, 25]         [1, 2048, 25, 25]         --                             --                   --                        --                        --
│    │    │    │    │    └─ReLU: 6-139                       [1, 2048, 25, 25]         [1, 2048, 25, 25]         --                        (recursive)               --                        --                        --
│    │    │    │    └─Bottleneck: 5-16                       [1, 2048, 25, 25]         [1, 2048, 25, 25]         --                             --                   --                        --                        True
│    │    │    │    │    └─Conv2d: 6-140                     [1, 2048, 25, 25]         [1, 512, 25, 25]          1,048,576                   1.57%                   [1, 1]                    655,360,000               True
│    │    │    │    │    └─FrozenBatchNorm2d: 6-141          [1, 512, 25, 25]          [1, 512, 25, 25]          --                             --                   --                        --                        --
│    │    │    │    │    └─ReLU: 6-142                       [1, 512, 25, 25]          [1, 512, 25, 25]          --                             --                   --                        --                        --
│    │    │    │    │    └─Conv2d: 6-143                     [1, 512, 25, 25]          [1, 512, 25, 25]          2,359,296                   3.53%                   [3, 3]                    1,474,560,000             True
│    │    │    │    │    └─FrozenBatchNorm2d: 6-144          [1, 512, 25, 25]          [1, 512, 25, 25]          --                             --                   --                        --                        --
│    │    │    │    │    └─ReLU: 6-145                       [1, 512, 25, 25]          [1, 512, 25, 25]          --                        (recursive)               --                        --                        --
│    │    │    │    │    └─Conv2d: 6-146                     [1, 512, 25, 25]          [1, 2048, 25, 25]         1,048,576                   1.57%                   [1, 1]                    655,360,000               True
│    │    │    │    │    └─FrozenBatchNorm2d: 6-147          [1, 2048, 25, 25]         [1, 2048, 25, 25]         --                             --                   --                        --                        --
│    │    │    │    │    └─ReLU: 6-148                       [1, 2048, 25, 25]         [1, 2048, 25, 25]         --                        (recursive)               --                        --                        --
│    └─PositionEmbeddingSineHW: 2-2                          [1, 256, 200, 200]        [1, 256, 200, 200]        --                             --                   --                        --                        --
│    └─PositionEmbeddingSineHW: 2-3                          [1, 512, 100, 100]        [1, 256, 100, 100]        --                        (recursive)               --                        --                        --
│    └─PositionEmbeddingSineHW: 2-4                          [1, 1024, 50, 50]         [1, 256, 50, 50]          --                        (recursive)               --                        --                        --
│    └─PositionEmbeddingSineHW: 2-5                          [1, 2048, 25, 25]         [1, 256, 25, 25]          --                        (recursive)               --                        --                        --
├─ModuleList: 1-2                                            --                        --                        --                             --                   --                        --                        True
│    └─Sequential: 2-6                                       [1, 256, 200, 200]        [1, 256, 200, 200]        --                             --                   --                        --                        True
│    │    └─Conv2d: 3-2                                      [1, 256, 200, 200]        [1, 256, 200, 200]        65,792                      0.10%                   [1, 1]                    2,631,680,000             True
│    │    └─GroupNorm: 3-3                                   [1, 256, 200, 200]        [1, 256, 200, 200]        512                         0.00%                   --                        512                       True
│    └─Sequential: 2-7                                       [1, 512, 100, 100]        [1, 256, 100, 100]        --                             --                   --                        --                        True
│    │    └─Conv2d: 3-4                                      [1, 512, 100, 100]        [1, 256, 100, 100]        131,328                     0.20%                   [1, 1]                    1,313,280,000             True
│    │    └─GroupNorm: 3-5                                   [1, 256, 100, 100]        [1, 256, 100, 100]        512                         0.00%                   --                        512                       True
│    └─Sequential: 2-8                                       [1, 1024, 50, 50]         [1, 256, 50, 50]          --                             --                   --                        --                        True
│    │    └─Conv2d: 3-6                                      [1, 1024, 50, 50]         [1, 256, 50, 50]          262,400                     0.39%                   [1, 1]                    656,000,000               True
│    │    └─GroupNorm: 3-7                                   [1, 256, 50, 50]          [1, 256, 50, 50]          512                         0.00%                   --                        512                       True
│    └─Sequential: 2-9                                       [1, 2048, 25, 25]         [1, 256, 25, 25]          --                             --                   --                        --                        True
│    │    └─Conv2d: 3-8                                      [1, 2048, 25, 25]         [1, 256, 25, 25]          524,544                     0.78%                   [1, 1]                    327,840,000               True
│    │    └─GroupNorm: 3-9                                   [1, 256, 25, 25]          [1, 256, 25, 25]          512                         0.00%                   --                        512                       True
│    └─Sequential: 2-10                                      [1, 2048, 25, 25]         [1, 256, 13, 13]          --                             --                   --                        --                        True
│    │    └─Conv2d: 3-10                                     [1, 2048, 25, 25]         [1, 256, 13, 13]          4,718,848                   7.05%                   [3, 3]                    797,485,312               True
│    │    └─GroupNorm: 3-11                                  [1, 256, 13, 13]          [1, 256, 13, 13]          512                         0.00%                   --                        512                       True
├─Joiner: 1-3                                                --                        --                        (recursive)               (recursive)               --                        --                        Partial
│    └─PositionEmbeddingSineHW: 2-11                         [1, 256, 13, 13]          [1, 256, 13, 13]          --                        (recursive)               --                        --                        --
├─DeformableTransformer: 1-4                                 [1, 256, 200, 200]        [1, 300, 256]             1,280                       0.00%                   --                        --                        True
│    └─TransformerEncoder: 2-12                              [1, 53294, 256]           [1, 53294, 256]           --                             --                   --                        --                        True
│    │    └─ModuleList: 3-12                                 --                        --                        --                             --                   --                        --                        True
│    │    │    └─DeformableTransformerEncoderLayer: 4-9      --                        [1, 53294, 256]           --                             --                   --                        --                        True
│    │    │    │    └─MSDeformAttn: 5-17                     [1, 53294, 256]           [1, 53294, 256]           --                             --                   --                        --                        True
│    │    │    │    │    └─Linear: 6-149                     [1, 53294, 256]           [1, 53294, 256]           65,792                      0.10%                   --                        65,792                    True
│    │    │    │    │    └─Linear: 6-150                     [1, 53294, 256]           [1, 53294, 320]           82,240                      0.12%                   --                        82,240                    True
│    │    │    │    │    └─Linear: 6-151                     [1, 53294, 256]           [1, 53294, 160]           41,120                      0.06%                   --                        41,120                    True
│    │    │    │    │    └─Linear: 6-152                     [1, 53294, 256]           [1, 53294, 256]           65,792                      0.10%                   --                        65,792                    True
│    │    │    │    └─Dropout: 5-18                          [1, 53294, 256]           [1, 53294, 256]           --                             --                   --                        --                        --
│    │    │    │    └─LayerNorm: 5-19                        [1, 53294, 256]           [1, 53294, 256]           512                         0.00%                   --                        512                       True
│    │    │    │    └─Linear: 5-20                           [1, 53294, 256]           [1, 53294, 2048]          526,336                     0.79%                   --                        526,336                   True
│    │    │    │    └─Dropout: 5-21                          [1, 53294, 2048]          [1, 53294, 2048]          --                             --                   --                        --                        --
│    │    │    │    └─Linear: 5-22                           [1, 53294, 2048]          [1, 53294, 256]           524,544                     0.78%                   --                        524,544                   True
│    │    │    │    └─Dropout: 5-23                          [1, 53294, 256]           [1, 53294, 256]           --                             --                   --                        --                        --
│    │    │    │    └─LayerNorm: 5-24                        [1, 53294, 256]           [1, 53294, 256]           512                         0.00%                   --                        512                       True
│    │    │    └─DeformableTransformerEncoderLayer: 4-10     --                        [1, 53294, 256]           --                             --                   --                        --                        True
│    │    │    │    └─MSDeformAttn: 5-25                     [1, 53294, 256]           [1, 53294, 256]           --                             --                   --                        --                        True
│    │    │    │    │    └─Linear: 6-153                     [1, 53294, 256]           [1, 53294, 256]           65,792                      0.10%                   --                        65,792                    True
│    │    │    │    │    └─Linear: 6-154                     [1, 53294, 256]           [1, 53294, 320]           82,240                      0.12%                   --                        82,240                    True
│    │    │    │    │    └─Linear: 6-155                     [1, 53294, 256]           [1, 53294, 160]           41,120                      0.06%                   --                        41,120                    True
│    │    │    │    │    └─Linear: 6-156                     [1, 53294, 256]           [1, 53294, 256]           65,792                      0.10%                   --                        65,792                    True
│    │    │    │    └─Dropout: 5-26                          [1, 53294, 256]           [1, 53294, 256]           --                             --                   --                        --                        --
│    │    │    │    └─LayerNorm: 5-27                        [1, 53294, 256]           [1, 53294, 256]           512                         0.00%                   --                        512                       True
│    │    │    │    └─Linear: 5-28                           [1, 53294, 256]           [1, 53294, 2048]          526,336                     0.79%                   --                        526,336                   True
│    │    │    │    └─Dropout: 5-29                          [1, 53294, 2048]          [1, 53294, 2048]          --                             --                   --                        --                        --
│    │    │    │    └─Linear: 5-30                           [1, 53294, 2048]          [1, 53294, 256]           524,544                     0.78%                   --                        524,544                   True
│    │    │    │    └─Dropout: 5-31                          [1, 53294, 256]           [1, 53294, 256]           --                             --                   --                        --                        --
│    │    │    │    └─LayerNorm: 5-32                        [1, 53294, 256]           [1, 53294, 256]           512                         0.00%                   --                        512                       True
│    │    │    └─DeformableTransformerEncoderLayer: 4-11     --                        [1, 53294, 256]           --                             --                   --                        --                        True
│    │    │    │    └─MSDeformAttn: 5-33                     [1, 53294, 256]           [1, 53294, 256]           --                             --                   --                        --                        True
│    │    │    │    │    └─Linear: 6-157                     [1, 53294, 256]           [1, 53294, 256]           65,792                      0.10%                   --                        65,792                    True
│    │    │    │    │    └─Linear: 6-158                     [1, 53294, 256]           [1, 53294, 320]           82,240                      0.12%                   --                        82,240                    True
│    │    │    │    │    └─Linear: 6-159                     [1, 53294, 256]           [1, 53294, 160]           41,120                      0.06%                   --                        41,120                    True
│    │    │    │    │    └─Linear: 6-160                     [1, 53294, 256]           [1, 53294, 256]           65,792                      0.10%                   --                        65,792                    True
│    │    │    │    └─Dropout: 5-34                          [1, 53294, 256]           [1, 53294, 256]           --                             --                   --                        --                        --
│    │    │    │    └─LayerNorm: 5-35                        [1, 53294, 256]           [1, 53294, 256]           512                         0.00%                   --                        512                       True
│    │    │    │    └─Linear: 5-36                           [1, 53294, 256]           [1, 53294, 2048]          526,336                     0.79%                   --                        526,336                   True
│    │    │    │    └─Dropout: 5-37                          [1, 53294, 2048]          [1, 53294, 2048]          --                             --                   --                        --                        --
│    │    │    │    └─Linear: 5-38                           [1, 53294, 2048]          [1, 53294, 256]           524,544                     0.78%                   --                        524,544                   True
│    │    │    │    └─Dropout: 5-39                          [1, 53294, 256]           [1, 53294, 256]           --                             --                   --                        --                        --
│    │    │    │    └─LayerNorm: 5-40                        [1, 53294, 256]           [1, 53294, 256]           512                         0.00%                   --                        512                       True
│    │    │    └─DeformableTransformerEncoderLayer: 4-12     --                        [1, 53294, 256]           --                             --                   --                        --                        True
│    │    │    │    └─MSDeformAttn: 5-41                     [1, 53294, 256]           [1, 53294, 256]           --                             --                   --                        --                        True
│    │    │    │    │    └─Linear: 6-161                     [1, 53294, 256]           [1, 53294, 256]           65,792                      0.10%                   --                        65,792                    True
│    │    │    │    │    └─Linear: 6-162                     [1, 53294, 256]           [1, 53294, 320]           82,240                      0.12%                   --                        82,240                    True
│    │    │    │    │    └─Linear: 6-163                     [1, 53294, 256]           [1, 53294, 160]           41,120                      0.06%                   --                        41,120                    True
│    │    │    │    │    └─Linear: 6-164                     [1, 53294, 256]           [1, 53294, 256]           65,792                      0.10%                   --                        65,792                    True
│    │    │    │    └─Dropout: 5-42                          [1, 53294, 256]           [1, 53294, 256]           --                             --                   --                        --                        --
│    │    │    │    └─LayerNorm: 5-43                        [1, 53294, 256]           [1, 53294, 256]           512                         0.00%                   --                        512                       True
│    │    │    │    └─Linear: 5-44                           [1, 53294, 256]           [1, 53294, 2048]          526,336                     0.79%                   --                        526,336                   True
│    │    │    │    └─Dropout: 5-45                          [1, 53294, 2048]          [1, 53294, 2048]          --                             --                   --                        --                        --
│    │    │    │    └─Linear: 5-46                           [1, 53294, 2048]          [1, 53294, 256]           524,544                     0.78%                   --                        524,544                   True
│    │    │    │    └─Dropout: 5-47                          [1, 53294, 256]           [1, 53294, 256]           --                             --                   --                        --                        --
│    │    │    │    └─LayerNorm: 5-48                        [1, 53294, 256]           [1, 53294, 256]           512                         0.00%                   --                        512                       True
│    │    │    └─DeformableTransformerEncoderLayer: 4-13     --                        [1, 53294, 256]           --                             --                   --                        --                        True
│    │    │    │    └─MSDeformAttn: 5-49                     [1, 53294, 256]           [1, 53294, 256]           --                             --                   --                        --                        True
│    │    │    │    │    └─Linear: 6-165                     [1, 53294, 256]           [1, 53294, 256]           65,792                      0.10%                   --                        65,792                    True
│    │    │    │    │    └─Linear: 6-166                     [1, 53294, 256]           [1, 53294, 320]           82,240                      0.12%                   --                        82,240                    True
│    │    │    │    │    └─Linear: 6-167                     [1, 53294, 256]           [1, 53294, 160]           41,120                      0.06%                   --                        41,120                    True
│    │    │    │    │    └─Linear: 6-168                     [1, 53294, 256]           [1, 53294, 256]           65,792                      0.10%                   --                        65,792                    True
│    │    │    │    └─Dropout: 5-50                          [1, 53294, 256]           [1, 53294, 256]           --                             --                   --                        --                        --
│    │    │    │    └─LayerNorm: 5-51                        [1, 53294, 256]           [1, 53294, 256]           512                         0.00%                   --                        512                       True
│    │    │    │    └─Linear: 5-52                           [1, 53294, 256]           [1, 53294, 2048]          526,336                     0.79%                   --                        526,336                   True
│    │    │    │    └─Dropout: 5-53                          [1, 53294, 2048]          [1, 53294, 2048]          --                             --                   --                        --                        --
│    │    │    │    └─Linear: 5-54                           [1, 53294, 2048]          [1, 53294, 256]           524,544                     0.78%                   --                        524,544                   True
│    │    │    │    └─Dropout: 5-55                          [1, 53294, 256]           [1, 53294, 256]           --                             --                   --                        --                        --
│    │    │    │    └─LayerNorm: 5-56                        [1, 53294, 256]           [1, 53294, 256]           512                         0.00%                   --                        512                       True
│    │    │    └─DeformableTransformerEncoderLayer: 4-14     --                        [1, 53294, 256]           --                             --                   --                        --                        True
│    │    │    │    └─MSDeformAttn: 5-57                     [1, 53294, 256]           [1, 53294, 256]           --                             --                   --                        --                        True
│    │    │    │    │    └─Linear: 6-169                     [1, 53294, 256]           [1, 53294, 256]           65,792                      0.10%                   --                        65,792                    True
│    │    │    │    │    └─Linear: 6-170                     [1, 53294, 256]           [1, 53294, 320]           82,240                      0.12%                   --                        82,240                    True
│    │    │    │    │    └─Linear: 6-171                     [1, 53294, 256]           [1, 53294, 160]           41,120                      0.06%                   --                        41,120                    True
│    │    │    │    │    └─Linear: 6-172                     [1, 53294, 256]           [1, 53294, 256]           65,792                      0.10%                   --                        65,792                    True
│    │    │    │    └─Dropout: 5-58                          [1, 53294, 256]           [1, 53294, 256]           --                             --                   --                        --                        --
│    │    │    │    └─LayerNorm: 5-59                        [1, 53294, 256]           [1, 53294, 256]           512                         0.00%                   --                        512                       True
│    │    │    │    └─Linear: 5-60                           [1, 53294, 256]           [1, 53294, 2048]          526,336                     0.79%                   --                        526,336                   True
│    │    │    │    └─Dropout: 5-61                          [1, 53294, 2048]          [1, 53294, 2048]          --                             --                   --                        --                        --
│    │    │    │    └─Linear: 5-62                           [1, 53294, 2048]          [1, 53294, 256]           524,544                     0.78%                   --                        524,544                   True
│    │    │    │    └─Dropout: 5-63                          [1, 53294, 256]           [1, 53294, 256]           --                             --                   --                        --                        --
│    │    │    │    └─LayerNorm: 5-64                        [1, 53294, 256]           [1, 53294, 256]           512                         0.00%                   --                        512                       True
│    └─CategoricalCounting: 2-13                             [1, 53294, 256]           [1, 4]                    --                             --                   --                        --                        True
│    │    └─Conv2d: 3-13                                     [1, 256, 200, 200]        [1, 512, 200, 200]        131,584                     0.20%                   [1, 1]                    5,263,360,000             True
│    │    └─Sequential: 3-14                                 [1, 512, 200, 200]        [1, 256, 200, 200]        --                             --                   --                        --                        True
│    │    │    └─Conv2d: 4-15                                [1, 512, 200, 200]        [1, 512, 200, 200]        2,359,808                   3.53%                   [3, 3]                    94,392,320,000            True
│    │    │    └─ReLU: 4-16                                  [1, 512, 200, 200]        [1, 512, 200, 200]        --                             --                   --                        --                        --
│    │    │    └─Conv2d: 4-17                                [1, 512, 200, 200]        [1, 512, 200, 200]        2,359,808                   3.53%                   [3, 3]                    94,392,320,000            True
│    │    │    └─ReLU: 4-18                                  [1, 512, 200, 200]        [1, 512, 200, 200]        --                             --                   --                        --                        --
│    │    │    └─Conv2d: 4-19                                [1, 512, 200, 200]        [1, 512, 200, 200]        2,359,808                   3.53%                   [3, 3]                    94,392,320,000            True
│    │    │    └─ReLU: 4-20                                  [1, 512, 200, 200]        [1, 512, 200, 200]        --                             --                   --                        --                        --
│    │    │    └─Conv2d: 4-21                                [1, 512, 200, 200]        [1, 256, 200, 200]        1,179,904                   1.76%                   [3, 3]                    47,196,160,000            True
│    │    │    └─ReLU: 4-22                                  [1, 256, 200, 200]        [1, 256, 200, 200]        --                             --                   --                        --                        --
│    │    │    └─Conv2d: 4-23                                [1, 256, 200, 200]        [1, 256, 200, 200]        590,080                     0.88%                   [3, 3]                    23,603,200,000            True
│    │    │    └─ReLU: 4-24                                  [1, 256, 200, 200]        [1, 256, 200, 200]        --                             --                   --                        --                        --
│    │    │    └─Conv2d: 4-25                                [1, 256, 200, 200]        [1, 256, 200, 200]        590,080                     0.88%                   [3, 3]                    23,603,200,000            True
│    │    │    └─ReLU: 4-26                                  [1, 256, 200, 200]        [1, 256, 200, 200]        --                             --                   --                        --                        --
│    │    └─AdaptiveAvgPool2d: 3-15                          [1, 256, 200, 200]        [1, 256, 1, 1]            --                             --                   --                        --                        --
│    │    └─Linear: 3-16                                     [1, 256]                  [1, 4]                    1,028                       0.00%                   --                        1,028                     True
│    └─MultiScaleFeature: 2-14                               [1, 256, 200, 200]        [1, 256, 200, 200]        --                             --                   --                        --                        True
│    │    └─Conv_GN: 3-17                                    [1, 256, 200, 200]        [1, 256, 100, 100]        --                             --                   --                        --                        True
│    │    │    └─Conv2d: 4-27                                [1, 256, 200, 200]        [1, 256, 100, 100]        589,824                     0.88%                   [3, 3]                    5,898,240,000             True
│    │    │    └─GroupNorm: 4-28                             [1, 256, 100, 100]        [1, 256, 100, 100]        512                         0.00%                   --                        512                       True
│    │    │    └─ReLU: 4-29                                  [1, 256, 100, 100]        [1, 256, 100, 100]        --                             --                   --                        --                        --
│    │    └─Conv_GN: 3-18                                    [1, 256, 100, 100]        [1, 256, 50, 50]          --                             --                   --                        --                        True
│    │    │    └─Conv2d: 4-30                                [1, 256, 100, 100]        [1, 256, 50, 50]          589,824                     0.88%                   [3, 3]                    1,474,560,000             True
│    │    │    └─GroupNorm: 4-31                             [1, 256, 50, 50]          [1, 256, 50, 50]          512                         0.00%                   --                        512                       True
│    │    │    └─ReLU: 4-32                                  [1, 256, 50, 50]          [1, 256, 50, 50]          --                             --                   --                        --                        --
│    │    └─Conv_GN: 3-19                                    [1, 256, 50, 50]          [1, 256, 25, 25]          --                             --                   --                        --                        True
│    │    │    └─Conv2d: 4-33                                [1, 256, 50, 50]          [1, 256, 25, 25]          589,824                     0.88%                   [3, 3]                    368,640,000               True
│    │    │    └─GroupNorm: 4-34                             [1, 256, 25, 25]          [1, 256, 25, 25]          512                         0.00%                   --                        512                       True
│    │    │    └─ReLU: 4-35                                  [1, 256, 25, 25]          [1, 256, 25, 25]          --                             --                   --                        --                        --
│    │    └─Conv_GN: 3-20                                    [1, 256, 25, 25]          [1, 256, 13, 13]          --                             --                   --                        --                        True
│    │    │    └─Conv2d: 4-36                                [1, 256, 25, 25]          [1, 256, 13, 13]          589,824                     0.88%                   [3, 3]                    99,680,256                True
│    │    │    └─GroupNorm: 4-37                             [1, 256, 13, 13]          [1, 256, 13, 13]          512                         0.00%                   --                        512                       True
│    │    │    └─ReLU: 4-38                                  [1, 256, 13, 13]          [1, 256, 13, 13]          --                             --                   --                        --                        --
│    └─CGFE: 2-15                                            [1, 256, 200, 200]        [1, 53294, 256]           --                             --                   --                        --                        True
│    │    └─SpatialGate: 3-21                                [1, 256, 200, 200]        [1, 1, 200, 200]          --                             --                   --                        --                        True
│    │    │    └─ChannelPool: 4-39                           [1, 256, 200, 200]        [1, 2, 200, 200]          --                             --                   --                        --                        --
│    │    │    └─Conv_BN: 4-40                               [1, 2, 200, 200]          [1, 1, 200, 200]          --                             --                   --                        --                        True
│    │    │    │    └─Conv2d: 5-65                           [1, 2, 200, 200]          [1, 1, 200, 200]          98                          0.00%                   [7, 7]                    3,920,000                 True
│    │    │    │    └─BatchNorm2d: 5-66                      [1, 1, 200, 200]          [1, 1, 200, 200]          2                           0.00%                   --                        2                         True
│    │    └─ChannelGate: 3-22                                [1, 256, 200, 200]        [1, 256, 200, 200]        --                             --                   --                        --                        True
│    │    │    └─Sequential: 4-41                            [1, 256, 1, 1]            [1, 256]                  --                             --                   --                        --                        True
│    │    │    │    └─Flatten: 5-67                          [1, 256, 1, 1]            [1, 256]                  --                             --                   --                        --                        --
│    │    │    │    └─Linear: 5-68                           [1, 256]                  [1, 16]                   4,112                       0.01%                   --                        4,112                     True
│    │    │    │    └─ReLU: 5-69                             [1, 16]                   [1, 16]                   --                             --                   --                        --                        --
│    │    │    │    └─Linear: 5-70                           [1, 16]                   [1, 256]                  4,352                       0.01%                   --                        4,352                     True
│    │    │    └─Sequential: 4-42                            [1, 256, 1, 1]            [1, 256]                  (recursive)               (recursive)               --                        --                        True
│    │    │    │    └─Flatten: 5-71                          [1, 256, 1, 1]            [1, 256]                  --                        (recursive)               --                        --                        --
│    │    │    │    └─Linear: 5-72                           [1, 256]                  [1, 16]                   (recursive)               (recursive)               --                        4,112                     True
│    │    │    │    └─ReLU: 5-73                             [1, 16]                   [1, 16]                   --                        (recursive)               --                        --                        --
│    │    │    │    └─Linear: 5-74                           [1, 16]                   [1, 256]                  (recursive)               (recursive)               --                        4,352                     True
│    │    └─SpatialGate: 3-23                                [1, 256, 100, 100]        [1, 1, 100, 100]          (recursive)               (recursive)               --                        --                        True
│    │    │    └─ChannelPool: 4-43                           [1, 256, 100, 100]        [1, 2, 100, 100]          --                        (recursive)               --                        --                        --
│    │    │    └─Conv_BN: 4-44                               [1, 2, 100, 100]          [1, 1, 100, 100]          (recursive)               (recursive)               --                        --                        True
│    │    │    │    └─Conv2d: 5-75                           [1, 2, 100, 100]          [1, 1, 100, 100]          (recursive)               (recursive)               [7, 7]                    980,000                   True
│    │    │    │    └─BatchNorm2d: 5-76                      [1, 1, 100, 100]          [1, 1, 100, 100]          (recursive)               (recursive)               --                        2                         True
│    │    └─ChannelGate: 3-24                                [1, 256, 100, 100]        [1, 256, 100, 100]        (recursive)               (recursive)               --                        --                        True
│    │    │    └─Sequential: 4-45                            [1, 256, 1, 1]            [1, 256]                  (recursive)               (recursive)               --                        --                        True
│    │    │    │    └─Flatten: 5-77                          [1, 256, 1, 1]            [1, 256]                  --                        (recursive)               --                        --                        --
│    │    │    │    └─Linear: 5-78                           [1, 256]                  [1, 16]                   (recursive)               (recursive)               --                        4,112                     True
│    │    │    │    └─ReLU: 5-79                             [1, 16]                   [1, 16]                   --                        (recursive)               --                        --                        --
│    │    │    │    └─Linear: 5-80                           [1, 16]                   [1, 256]                  (recursive)               (recursive)               --                        4,352                     True
│    │    │    └─Sequential: 4-46                            [1, 256, 1, 1]            [1, 256]                  (recursive)               (recursive)               --                        --                        True
│    │    │    │    └─Flatten: 5-81                          [1, 256, 1, 1]            [1, 256]                  --                        (recursive)               --                        --                        --
│    │    │    │    └─Linear: 5-82                           [1, 256]                  [1, 16]                   (recursive)               (recursive)               --                        4,112                     True
│    │    │    │    └─ReLU: 5-83                             [1, 16]                   [1, 16]                   --                        (recursive)               --                        --                        --
│    │    │    │    └─Linear: 5-84                           [1, 16]                   [1, 256]                  (recursive)               (recursive)               --                        4,352                     True
│    │    └─SpatialGate: 3-25                                [1, 256, 50, 50]          [1, 1, 50, 50]            (recursive)               (recursive)               --                        --                        True
│    │    │    └─ChannelPool: 4-47                           [1, 256, 50, 50]          [1, 2, 50, 50]            --                        (recursive)               --                        --                        --
│    │    │    └─Conv_BN: 4-48                               [1, 2, 50, 50]            [1, 1, 50, 50]            (recursive)               (recursive)               --                        --                        True
│    │    │    │    └─Conv2d: 5-85                           [1, 2, 50, 50]            [1, 1, 50, 50]            (recursive)               (recursive)               [7, 7]                    245,000                   True
│    │    │    │    └─BatchNorm2d: 5-86                      [1, 1, 50, 50]            [1, 1, 50, 50]            (recursive)               (recursive)               --                        2                         True
│    │    └─ChannelGate: 3-26                                [1, 256, 50, 50]          [1, 256, 50, 50]          (recursive)               (recursive)               --                        --                        True
│    │    │    └─Sequential: 4-49                            [1, 256, 1, 1]            [1, 256]                  (recursive)               (recursive)               --                        --                        True
│    │    │    │    └─Flatten: 5-87                          [1, 256, 1, 1]            [1, 256]                  --                        (recursive)               --                        --                        --
│    │    │    │    └─Linear: 5-88                           [1, 256]                  [1, 16]                   (recursive)               (recursive)               --                        4,112                     True
│    │    │    │    └─ReLU: 5-89                             [1, 16]                   [1, 16]                   --                        (recursive)               --                        --                        --
│    │    │    │    └─Linear: 5-90                           [1, 16]                   [1, 256]                  (recursive)               (recursive)               --                        4,352                     True
│    │    │    └─Sequential: 4-50                            [1, 256, 1, 1]            [1, 256]                  (recursive)               (recursive)               --                        --                        True
│    │    │    │    └─Flatten: 5-91                          [1, 256, 1, 1]            [1, 256]                  --                        (recursive)               --                        --                        --
│    │    │    │    └─Linear: 5-92                           [1, 256]                  [1, 16]                   (recursive)               (recursive)               --                        4,112                     True
│    │    │    │    └─ReLU: 5-93                             [1, 16]                   [1, 16]                   --                        (recursive)               --                        --                        --
│    │    │    │    └─Linear: 5-94                           [1, 16]                   [1, 256]                  (recursive)               (recursive)               --                        4,352                     True
│    │    └─SpatialGate: 3-27                                [1, 256, 25, 25]          [1, 1, 25, 25]            (recursive)               (recursive)               --                        --                        True
│    │    │    └─ChannelPool: 4-51                           [1, 256, 25, 25]          [1, 2, 25, 25]            --                        (recursive)               --                        --                        --
│    │    │    └─Conv_BN: 4-52                               [1, 2, 25, 25]            [1, 1, 25, 25]            (recursive)               (recursive)               --                        --                        True
│    │    │    │    └─Conv2d: 5-95                           [1, 2, 25, 25]            [1, 1, 25, 25]            (recursive)               (recursive)               [7, 7]                    61,250                    True
│    │    │    │    └─BatchNorm2d: 5-96                      [1, 1, 25, 25]            [1, 1, 25, 25]            (recursive)               (recursive)               --                        2                         True
│    │    └─ChannelGate: 3-28                                [1, 256, 25, 25]          [1, 256, 25, 25]          (recursive)               (recursive)               --                        --                        True
│    │    │    └─Sequential: 4-53                            [1, 256, 1, 1]            [1, 256]                  (recursive)               (recursive)               --                        --                        True
│    │    │    │    └─Flatten: 5-97                          [1, 256, 1, 1]            [1, 256]                  --                        (recursive)               --                        --                        --
│    │    │    │    └─Linear: 5-98                           [1, 256]                  [1, 16]                   (recursive)               (recursive)               --                        4,112                     True
│    │    │    │    └─ReLU: 5-99                             [1, 16]                   [1, 16]                   --                        (recursive)               --                        --                        --
│    │    │    │    └─Linear: 5-100                          [1, 16]                   [1, 256]                  (recursive)               (recursive)               --                        4,352                     True
│    │    │    └─Sequential: 4-54                            [1, 256, 1, 1]            [1, 256]                  (recursive)               (recursive)               --                        --                        True
│    │    │    │    └─Flatten: 5-101                         [1, 256, 1, 1]            [1, 256]                  --                        (recursive)               --                        --                        --
│    │    │    │    └─Linear: 5-102                          [1, 256]                  [1, 16]                   (recursive)               (recursive)               --                        4,112                     True
│    │    │    │    └─ReLU: 5-103                            [1, 16]                   [1, 16]                   --                        (recursive)               --                        --                        --
│    │    │    │    └─Linear: 5-104                          [1, 16]                   [1, 256]                  (recursive)               (recursive)               --                        4,352                     True
│    │    └─SpatialGate: 3-29                                [1, 256, 13, 13]          [1, 1, 13, 13]            (recursive)               (recursive)               --                        --                        True
│    │    │    └─ChannelPool: 4-55                           [1, 256, 13, 13]          [1, 2, 13, 13]            --                        (recursive)               --                        --                        --
│    │    │    └─Conv_BN: 4-56                               [1, 2, 13, 13]            [1, 1, 13, 13]            (recursive)               (recursive)               --                        --                        True
│    │    │    │    └─Conv2d: 5-105                          [1, 2, 13, 13]            [1, 1, 13, 13]            (recursive)               (recursive)               [7, 7]                    16,562                    True
│    │    │    │    └─BatchNorm2d: 5-106                     [1, 1, 13, 13]            [1, 1, 13, 13]            (recursive)               (recursive)               --                        2                         True
│    │    └─ChannelGate: 3-30                                [1, 256, 13, 13]          [1, 256, 13, 13]          (recursive)               (recursive)               --                        --                        True
│    │    │    └─Sequential: 4-57                            [1, 256, 1, 1]            [1, 256]                  (recursive)               (recursive)               --                        --                        True
│    │    │    │    └─Flatten: 5-107                         [1, 256, 1, 1]            [1, 256]                  --                        (recursive)               --                        --                        --
│    │    │    │    └─Linear: 5-108                          [1, 256]                  [1, 16]                   (recursive)               (recursive)               --                        4,112                     True
│    │    │    │    └─ReLU: 5-109                            [1, 16]                   [1, 16]                   --                        (recursive)               --                        --                        --
│    │    │    │    └─Linear: 5-110                          [1, 16]                   [1, 256]                  (recursive)               (recursive)               --                        4,352                     True
│    │    │    └─Sequential: 4-58                            [1, 256, 1, 1]            [1, 256]                  (recursive)               (recursive)               --                        --                        True
│    │    │    │    └─Flatten: 5-111                         [1, 256, 1, 1]            [1, 256]                  --                        (recursive)               --                        --                        --
│    │    │    │    └─Linear: 5-112                          [1, 256]                  [1, 16]                   (recursive)               (recursive)               --                        4,112                     True
│    │    │    │    └─ReLU: 5-113                            [1, 16]                   [1, 16]                   --                        (recursive)               --                        --                        --
│    │    │    │    └─Linear: 5-114                          [1, 16]                   [1, 256]                  (recursive)               (recursive)               --                        4,352                     True
│    └─Linear: 2-16                                          [1, 53294, 256]           [1, 53294, 256]           65,792                      0.10%                   --                        65,792                    True
│    └─LayerNorm: 2-17                                       [1, 53294, 256]           [1, 53294, 256]           512                         0.00%                   --                        512                       True
│    └─Linear: 2-18                                          [1, 53294, 256]           [1, 53294, 9]             2,313                       0.00%                   --                        2,313                     True
│    └─MLP: 2-19                                             [1, 53294, 256]           [1, 53294, 4]             --                             --                   --                        --                        True
│    │    └─ModuleList: 3-31                                 --                        --                        --                             --                   --                        --                        True
│    │    │    └─Linear: 4-59                                [1, 53294, 256]           [1, 53294, 256]           65,792                      0.10%                   --                        65,792                    True
│    │    │    └─Linear: 4-60                                [1, 53294, 256]           [1, 53294, 256]           65,792                      0.10%                   --                        65,792                    True
│    │    │    └─Linear: 4-61                                [1, 53294, 256]           [1, 53294, 4]             1,028                       0.00%                   --                        1,028                     True
│    └─TransformerDecoder: 2-20                              --                        [1, 300, 256]             7,988,077                  11.94%                   --                        --                        True
│    │    └─MLP: 3-32                                        [300, 1, 512]             [300, 1, 256]             --                             --                   --                        --                        True
│    │    │    └─ModuleList: 4-87                            --                        --                        (recursive)               (recursive)               --                        --                        True
│    │    │    │    └─Linear: 5-115                          [300, 1, 512]             [300, 1, 256]             131,328                     0.20%                   --                        39,398,400                True
│    │    │    │    └─Linear: 5-116                          [300, 1, 256]             [300, 1, 256]             65,792                      0.10%                   --                        19,737,600                True
│    │    └─ModuleList: 3-53                                 --                        --                        (recursive)               (recursive)               --                        --                        True
│    │    │    └─DeformableTransformerDecoderLayer: 4-63     --                        [300, 1, 256]             --                             --                   --                        --                        True
│    │    │    │    └─MultiheadAttention: 5-117              [300, 1, 256]             [300, 1, 256]             263,168                     0.39%                   --                        --                        True
│    │    │    │    └─Dropout: 5-118                         [300, 1, 256]             [300, 1, 256]             --                             --                   --                        --                        --
│    │    │    │    └─LayerNorm: 5-119                       [300, 1, 256]             [300, 1, 256]             512                         0.00%                   --                        153,600                   True
│    │    │    │    └─MSDeformAttn: 5-120                    [1, 300, 256]             [1, 300, 256]             --                             --                   --                        --                        True
│    │    │    │    │    └─Linear: 6-173                     [1, 53294, 256]           [1, 53294, 256]           65,792                      0.10%                   --                        65,792                    True
│    │    │    │    │    └─Linear: 6-174                     [1, 300, 256]             [1, 300, 320]             82,240                      0.12%                   --                        82,240                    True
│    │    │    │    │    └─Linear: 6-175                     [1, 300, 256]             [1, 300, 160]             41,120                      0.06%                   --                        41,120                    True
│    │    │    │    │    └─Linear: 6-176                     [1, 300, 256]             [1, 300, 256]             65,792                      0.10%                   --                        65,792                    True
│    │    │    │    └─Dropout: 5-121                         [300, 1, 256]             [300, 1, 256]             --                             --                   --                        --                        --
│    │    │    │    └─LayerNorm: 5-122                       [300, 1, 256]             [300, 1, 256]             512                         0.00%                   --                        153,600                   True
│    │    │    │    └─Linear: 5-123                          [300, 1, 256]             [300, 1, 2048]            526,336                     0.79%                   --                        157,900,800               True
│    │    │    │    └─Dropout: 5-124                         [300, 1, 2048]            [300, 1, 2048]            --                             --                   --                        --                        --
│    │    │    │    └─Linear: 5-125                          [300, 1, 2048]            [300, 1, 256]             524,544                     0.78%                   --                        157,363,200               True
│    │    │    │    └─Dropout: 5-126                         [300, 1, 256]             [300, 1, 256]             --                             --                   --                        --                        --
│    │    │    │    └─LayerNorm: 5-127                       [300, 1, 256]             [300, 1, 256]             512                         0.00%                   --                        153,600                   True
├─ModuleList: 1-17                                           --                        --                        (recursive)               (recursive)               --                        --                        True
│    └─MLP: 2-21                                             [300, 1, 256]             [300, 1, 4]               --                             --                   --                        --                        True
│    │    └─ModuleList: 3-61                                 --                        --                        (recursive)               (recursive)               --                        --                        True
│    │    │    └─Linear: 4-64                                [300, 1, 256]             [300, 1, 256]             65,792                      0.10%                   --                        19,737,600                True
│    │    │    └─Linear: 4-65                                [300, 1, 256]             [300, 1, 256]             65,792                      0.10%                   --                        19,737,600                True
│    │    │    └─Linear: 4-66                                [300, 1, 256]             [300, 1, 4]               1,028                       0.00%                   --                        308,400                   True
├─DeformableTransformer: 1-19                                --                        --                        (recursive)               (recursive)               --                        --                        True
│    └─TransformerDecoder: 2-32                              --                        --                        (recursive)               (recursive)               --                        --                        True
│    │    └─LayerNorm: 3-35                                  [300, 1, 256]             [300, 1, 256]             512                         0.00%                   --                        153,600                   True
│    │    └─MLP: 3-36                                        [300, 1, 512]             [300, 1, 256]             (recursive)               (recursive)               --                        --                        True
│    │    │    └─ModuleList: 4-87                            --                        --                        (recursive)               (recursive)               --                        --                        True
│    │    │    │    └─Linear: 5-128                          [300, 1, 512]             [300, 1, 256]             (recursive)               (recursive)               --                        39,398,400                True
│    │    │    │    └─Linear: 5-129                          [300, 1, 256]             [300, 1, 256]             (recursive)               (recursive)               --                        19,737,600                True
│    │    └─ModuleList: 3-53                                 --                        --                        (recursive)               (recursive)               --                        --                        True
│    │    │    └─DeformableTransformerDecoderLayer: 4-68     --                        [300, 1, 256]             --                             --                   --                        --                        True
│    │    │    │    └─MultiheadAttention: 5-130              [300, 1, 256]             [300, 1, 256]             263,168                     0.39%                   --                        --                        True
│    │    │    │    └─Dropout: 5-131                         [300, 1, 256]             [300, 1, 256]             --                             --                   --                        --                        --
│    │    │    │    └─LayerNorm: 5-132                       [300, 1, 256]             [300, 1, 256]             512                         0.00%                   --                        153,600                   True
│    │    │    │    └─MSDeformAttn: 5-133                    [1, 300, 256]             [1, 300, 256]             --                             --                   --                        --                        True
│    │    │    │    │    └─Linear: 6-177                     [1, 53294, 256]           [1, 53294, 256]           65,792                      0.10%                   --                        65,792                    True
│    │    │    │    │    └─Linear: 6-178                     [1, 300, 256]             [1, 300, 320]             82,240                      0.12%                   --                        82,240                    True
│    │    │    │    │    └─Linear: 6-179                     [1, 300, 256]             [1, 300, 160]             41,120                      0.06%                   --                        41,120                    True
│    │    │    │    │    └─Linear: 6-180                     [1, 300, 256]             [1, 300, 256]             65,792                      0.10%                   --                        65,792                    True
│    │    │    │    └─Dropout: 5-134                         [300, 1, 256]             [300, 1, 256]             --                             --                   --                        --                        --
│    │    │    │    └─LayerNorm: 5-135                       [300, 1, 256]             [300, 1, 256]             512                         0.00%                   --                        153,600                   True
│    │    │    │    └─Linear: 5-136                          [300, 1, 256]             [300, 1, 2048]            526,336                     0.79%                   --                        157,900,800               True
│    │    │    │    └─Dropout: 5-137                         [300, 1, 2048]            [300, 1, 2048]            --                             --                   --                        --                        --
│    │    │    │    └─Linear: 5-138                          [300, 1, 2048]            [300, 1, 256]             524,544                     0.78%                   --                        157,363,200               True
│    │    │    │    └─Dropout: 5-139                         [300, 1, 256]             [300, 1, 256]             --                             --                   --                        --                        --
│    │    │    │    └─LayerNorm: 5-140                       [300, 1, 256]             [300, 1, 256]             512                         0.00%                   --                        153,600                   True
├─ModuleList: 1-17                                           --                        --                        (recursive)               (recursive)               --                        --                        True
│    └─MLP: 2-23                                             [300, 1, 256]             [300, 1, 4]               (recursive)               (recursive)               --                        --                        True
…
